_Documents/vela_compile/yolo_coco.tflite (tflite, 570568 bytes, 84 tensors)

model/conv2d/Conv2D i1 [8, 3, 3, 1]
00000000: 0407 4128 277f e988 e319 c833 2b81 4417
00000010: a01d 3cf3 b67f f0ad 3ff6 c6ee d3e3 357f
00000020: 5bdd aec1 0ce2 241b 8134 0e84 1beb 9102
00000030: fc9d 282a 6f7f ad19 2181 4f4f ab1a 2909
00000040: 3219 f128 c606 c681
4 7 65 40 39 127 -23 -120
-29 25 -56 51 43 -127 68 23
-96 29 60 -13 -74 127 -16 -83
63 -10 -58 -18 -45 -29 53 127
91 -35 -82 -63 12 -30 36 27
-127 52 14 -124 27 -21 -111 2
-4 -99 40 42 111 127 -83 25
33 -127 79 79 -85 26 41 9
50 25 -15 40 -58 6 -58 -127

model/conv2d_1/Conv2D i1 [8, 1, 1, 8]
00000000: b0f7 f27f 024c f6f5 c781 2df0 bbaf 4137
00000010: 810c 0723 fc65 02b3 0c18 81eb 0ff3 23fd
00000020: 8177 12fd 61c9 f550 e998 7f03 d4b9 8b2c
00000030: 3a7f 2cf9 4649 0cb1 6808 f7c5 1281 ff3b
-80 -9 -14 127 2 76 -10 -11
-57 -127 45 -16 -69 -81 65 55
-127 12 7 35 -4 101 2 -77
12 24 -127 -21 15 -13 35 -3
-127 119 18 -3 97 -55 -11 80
-23 -104 127 3 -44 -71 -117 44
58 127 44 -7 70 73 12 -79
104 8 -9 -59 18 -127 -1 59

model/conv2d_2/Conv2D i1 [4, 1, 1, 8]
00000000: 696a c223 a4d2 81d9 b37a 2cf5 2e7f 8519
00000010: 3ac7 db1d ab7f 38eb 3512 07c3 7f14 05b6
105 106 -62 35 -92 -46 -127 -39
-77 122 44 -11 46 127 -123 25
58 -57 -37 29 -85 127 56 -21
53 18 7 -61 127 20 5 -74

model/conv2d_3/Conv2D i1 [8, 1, 1, 4]
00000000: 1604 7f0c 1281 ce1d 2881 5a9e e20d a47f
00000010: e657 8171 bc6d f27f 0736 7fbd d559 e481
22 4 127 12 18 -127 -50 29
40 -127 90 -98 -30 13 -92 127
-26 87 -127 113 -68 109 -14 127
7 54 127 -67 -43 89 -28 -127

model/conv2d_4/Conv2D i1 [4, 1, 1, 8]
00000000: 031e 6fd9 6ff3 7ffe ff9c 2f7d cc7f f300
00000010: 0181 b152 5b70 a302 0aa8 7f50 9b35 1702
3 30 111 -39 111 -13 127 -2
-1 -100 47 125 -52 127 -13 0
1 -127 -79 82 91 112 -93 2
10 -88 127 80 -101 53 23 2

model/conv2d_5/Conv2D i1 [24, 1, 1, 4]
00000000: fb37 7f20 b676 517f 81e4 fdd3 f14e 0b7f
00000010: cb24 567f 0233 7fa3 79c9 5d81 ecb8 8149
00000020: 527f bf0b 5c64 bb81 818d 42ef e265 7f23
00000030: bd7f 1c3b 7fd1 3266 8ecd 107f 0c0e 7faf
00000040: 95d5 f37f 577f a217 be72 b77f b4be 067f
00000050: 0f29 7fa7 7f54 9200 2e81 dc98 8113 e9b3
-5 55 127 32 -74 118 81 127
-127 -28 -3 -45 -15 78 11 127
-53 36 86 127 2 51 127 -93
121 -55 93 -127 -20 -72 -127 73
82 127 -65 11 92 100 -69 -127
-127 -115 66 -17 -30 101 127 35
-67 127 28 59 127 -47 50 102
-114 -51 16 127 12 14 127 -81
-107 -43 -13 127 87 127 -94 23
-66 114 -73 127 -76 -66 6 127
15 41 127 -89 127 84 -110 0
46 -127 -36 -104 -127 19 -23 -77

model/conv2d_6/Conv2D i1 [8, 1, 1, 24]
00000000: f61c 29b4 c549 dfd0 169c 144f 814d fa0f
00000010: 0b08 dd10 13d9 0cf1 04f7 7f32 ffde e156
00000020: ffb6 3703 26ce cbee d0f6 bad2 f0f4 a395
00000030: 16de 29d4 25d4 0381 fbee 1304 20f5 e4e2
00000040: dffb f6f4 e122 4ae8 3ce6 0104 1a65 22df
00000050: 03d7 ba9f 0381 f718 fade fa17 1dbd 4e30
00000060: fffd 0e30 041b fef7 7f2c 4609 0e7f 2607
00000070: 386d 2d2e 0e23 f4b8 2620 f9ca ce4b fd00
00000080: eb7f 0de8 10dc e4ff def4 e7c4 fcf7 e1eb
00000090: aa01 5abb f907 e624 eb74 0056 ebfa 3633
000000a0: 36ea 0e07 37fe 7f98 9fc7 c142 3d9b b7ab
000000b0: 1377 0916 232a 0aa0 0de9 c5b9 a281 3406
-10 28 41 -76 -59 73 -33 -48
22 -100 20 79 -127 77 -6 15
11 8 -35 16 19 -39 12 -15
4 -9 127 50 -1 -34 -31 86
-1 -74 55 3 38 -50 -53 -18
-48 -10 -70 -46 -16 -12 -93 -107
22 -34 41 -44 37 -44 3 -127
-5 -18 19 4 32 -11 -28 -30
-33 -5 -10 -12 -31 34 74 -24
60 -26 1 4 26 101 34 -33
3 -41 -70 -97 3 -127 -9 24
-6 -34 -6 23 29 -67 78 48
-1 -3 14 48 4 27 -2 -9
127 44 70 9 14 127 38 7
56 109 45 46 14 35 -12 -72
38 32 -7 -54 -50 75 -3 0
-21 127 13 -24 16 -36 -28 -1
-34 -12 -25 -60 -4 -9 -31 -21
-86 1 90 -69 -7 7 -26 36
-21 116 0 86 -21 -6 54 51
54 -22 14 7 55 -2 127 -104
-97 -57 -63 66 61 -101 -73 -85
19 119 9 22 35 42 10 -96
13 -23 -59 -71 -94 -127 52 6

model/conv2d_7/Conv2D i1 [32, 1, 1, 8]
00000000: d612 d7cd 1de4 81eb 81c7 ffb4 ff2e 00cd
00000010: ebe0 34f3 3d7f ebf1 2331 2783 e781 a515
00000020: 1535 9e7e 1bfe f57f ba4b 7fd0 ac2b 3283
00000030: 81df f60a 0c1e 3b14 de51 c1e5 aecf eb81
00000040: 09bd e6ca 7fd1 0afc 00d5 f8dd 7fc8 18e2
00000050: 7f84 203e 213b 0ed4 96be 4d85 b325 1481
00000060: 20af 33f2 cd3c 7f20 5b05 8102 b02d 9b86
00000070: f993 fc0d 51f3 8121 2802 1dd6 1481 bb06
00000080: c381 a0a7 2d44 c746 8130 caf2 09d9 18fd
00000090: 4b7f 5ae6 b016 0ec8 19bf 3d33 347f 1f03
000000a0: 7e81 dc0b fcbc b40f 9827 497f 3fc2 4e65
000000b0: 1b41 057f 1963 0a64 46e0 81ca 7df5 d9fe
000000c0: 81ff f047 0052 516f e3f4 7f59 faaa eb2e
000000d0: 7f2e 4ee3 bdba 8da7 ef7f 4132 fea7 db1f
000000e0: a932 9e2e 3f81 b22e b503 abeb c581 47fe
000000f0: d17f 3023 f719 5cfe 8f6d 9c12 4d81 f9cf
-42 18 -41 -51 29 -28 -127 -21
-127 -57 -1 -76 -1 46 0 -51
-21 -32 52 -13 61 127 -21 -15
35 49 39 -125 -25 -127 -91 21
21 53 -98 126 27 -2 -11 127
-70 75 127 -48 -84 43 50 -125
-127 -33 -10 10 12 30 59 20
-34 81 -63 -27 -82 -49 -21 -127
9 -67 -26 -54 127 -47 10 -4
0 -43 -8 -35 127 -56 24 -30
127 -124 32 62 33 59 14 -44
-106 -66 77 -123 -77 37 20 -127
32 -81 51 -14 -51 60 127 32
91 5 -127 2 -80 45 -101 -122
-7 -109 -4 13 81 -13 -127 33
40 2 29 -42 20 -127 -69 6
-61 -127 -96 -89 45 68 -57 70
-127 48 -54 -14 9 -39 24 -3
75 127 90 -26 -80 22 14 -56
25 -65 61 51 52 127 31 3
126 -127 -36 11 -4 -68 -76 15
-104 39 73 127 63 -62 78 101
27 65 5 127 25 99 10 100
70 -32 -127 -54 125 -11 -39 -2
-127 -1 -16 71 0 82 81 111
-29 -12 127 89 -6 -86 -21 46
127 46 78 -29 -67 -70 -115 -89
-17 127 65 50 -2 -89 -37 31
-87 50 -98 46 63 -127 -78 46
-75 3 -85 -21 -59 -127 71 -2
-47 127 48 35 -9 25 92 -2
-113 109 -100 18 77 -127 -7 -49

model/conv2d_8/Conv2D i1 [8, 1, 1, 32]
00000000: 1101 d932 ead5 f007 f523 0e26 bf0a 1400
00000010: 211e da4b f5f4 700e 204c 7f0c cdc9 37a9
00000020: 16df e9e5 dc97 2744 fe03 8128 e5f0 0ad2
00000030: 4301 c4de 6c02 dff4 311a 3132 3a0a d324
00000040: 47fe a101 e3e0 55bc 005e dcfc 3d2e 3c7f
00000050: 7720 14d5 e858 49a6 8db4 2a47 ce9b dd31
00000060: 3ecc 1a38 c90d 30cb 3c8c 0f2b 43f5 131e
00000070: db51 0003 f643 ff27 0a81 baed c81a a00d
00000080: db79 3e14 7f02 33e6 a811 322f faf8 c81e
00000090: ed08 6005 1e10 edc3 28f1 00c6 d4fb 26fe
000000a0: 1cd4 963e 43cb f224 e42e 151f bffb 3dba
000000b0: 0200 d3dd 03df d537 4262 0a95 94be ca81
000000c0: 3ae4 252d d5a9 afd8 d1e2 30ac 1cc4 813b
000000d0: 1cc1 c700 48e7 ab99 22e7 af1b ba01 442d
000000e0: c608 efd6 3ade 139d e8e0 e0f9 d4bb fd37
000000f0: 2cfc f281 e3ed 12e3 b8d2 1e25 0596 e90c
17 1 -39 50 -22 -43 -16 7
-11 35 14 38 -65 10 20 0
33 30 -38 75 -11 -12 112 14
32 76 127 12 -51 -55 55 -87
22 -33 -23 -27 -36 -105 39 68
-2 3 -127 40 -27 -16 10 -46
67 1 -60 -34 108 2 -33 -12
49 26 49 50 58 10 -45 36
71 -2 -95 1 -29 -32 85 -68
0 94 -36 -4 61 46 60 127
119 32 20 -43 -24 88 73 -90
-115 -76 42 71 -50 -101 -35 49
62 -52 26 56 -55 13 48 -53
60 -116 15 43 67 -11 19 30
-37 81 0 3 -10 67 -1 39
10 -127 -70 -19 -56 26 -96 13
-37 121 62 20 127 2 51 -26
-88 17 50 47 -6 -8 -56 30
-19 8 96 5 30 16 -19 -61
40 -15 0 -58 -44 -5 38 -2
28 -44 -106 62 67 -53 -14 36
-28 46 21 31 -65 -5 61 -70
2 0 -45 -35 3 -33 -43 55
66 98 10 -107 -108 -66 -54 -127
58 -28 37 45 -43 -87 -81 -40
-47 -30 48 -84 28 -60 -127 59
28 -63 -57 0 72 -25 -85 -103
34 -25 -81 27 -70 1 68 45
-58 8 -17 -42 58 -34 19 -99
-24 -32 -32 -7 -44 -69 -3 55
44 -4 -14 -127 -29 -19 18 -29
-72 -46 30 37 5 -106 -23 12

model/conv2d_9/Conv2D i1 [32, 1, 1, 8]
00000000: 2a08 8418 0c3f d181 1719 a759 0644 d581
00000010: 067f db03 1800 97fd 2dde a807 1aac 7f8c
00000020: 7df4 21c9 e6db 8113 d652 ddd0 ef81 bfda
00000030: 2a61 9bc1 0a7f baf8 d6ac 7649 e681 e814
00000040: 4338 ce9a bb51 3a81 3f1d 7281 1d08 ceb9
00000050: f326 6a56 81fa dd5c 1699 d712 cdc1 7fdf
00000060: 993c e9e5 f481 0f04 816a dc4f 01ff 28d5
00000070: 81e6 cb53 1070 4022 7a3f 7fd6 a4e3 c793
00000080: c45c e330 0e20 7fc0 638c 38f4 237f 2ed1
00000090: ba7f 2910 b32d 330e 07e0 8150 2230 05e0
000000a0: 8115 4d88 8105 3b93 a204 b7d5 1a81 d8fe
000000b0: d0f7 2c7f 4a9b 38fd d811 f82a 812b dcb3
000000c0: d6f2 7f4f 0b9a f341 4d81 3c32 0849 2ae0
000000d0: 46fb a47f 15e0 a7ca 2efd 7fd7 f6e1 e51c
000000e0: 847f c4c7 fdd8 e813 69de 005e 097f d5ee
000000f0: 8c81 a1d4 6324 163e 27e1 0181 6af3 3b35
42 8 -124 24 12 63 -47 -127
23 25 -89 89 6 68 -43 -127
6 127 -37 3 24 0 -105 -3
45 -34 -88 7 26 -84 127 -116
125 -12 33 -55 -26 -37 -127 19
-42 82 -35 -48 -17 -127 -65 -38
42 97 -101 -63 10 127 -70 -8
-42 -84 118 73 -26 -127 -24 20
67 56 -50 -102 -69 81 58 -127
63 29 114 -127 29 8 -50 -71
-13 38 106 86 -127 -6 -35 92
22 -103 -41 18 -51 -63 127 -33
-103 60 -23 -27 -12 -127 15 4
-127 106 -36 79 1 -1 40 -43
-127 -26 -53 83 16 112 64 34
122 63 127 -42 -92 -29 -57 -109
-60 92 -29 48 14 32 127 -64
99 -116 56 -12 35 127 46 -47
-70 127 41 16 -77 45 51 14
7 -32 -127 80 34 48 5 -32
-127 21 77 -120 -127 5 59 -109
-94 4 -73 -43 26 -127 -40 -2
-48 -9 44 127 74 -101 56 -3
-40 17 -8 42 -127 43 -36 -77
-42 -14 127 79 11 -102 -13 65
77 -127 60 50 8 73 42 -32
70 -5 -92 127 21 -32 -89 -54
46 -3 127 -41 -10 -31 -27 28
-124 127 -60 -57 -3 -40 -24 19
105 -34 0 94 9 127 -43 -18
-116 -127 -95 -44 99 36 22 62
39 -31 1 -127 106 -13 59 53

model/conv2d_10/Conv2D i1 [8, 1, 1, 32]
00000000: 1f26 0e51 79fe 04fe eb30 2b11 dcfe 417f
00000010: e228 5419 541f 4efa 620d 0a2b e10c e60b
00000020: e40a e105 edae f3db 99fd 3e4d 1654 7f4a
00000030: ff25 af0c 291c 3727 f599 0c1f b4fc 2c44
00000040: 4547 3223 c1f5 7a03 41ca 4419 d12c 274b
00000050: dafd 04d6 5afd 214e 8163 ecdf 29e1 cb30
00000060: cda4 39b3 0bed ac6b e1ef a8e1 2cf8 05ba
00000070: 50d2 8131 c729 988e a6e9 4dff 304e fd24
00000080: 07db 04f2 d711 f5f3 124a ecfd 0410 2adf
00000090: 24e1 0314 ce0a 0604 f4f1 0522 1afc 2181
000000a0: d3f4 bb10 2581 13d3 baf0 3148 e4c8 4306
000000b0: e211 f313 d7e7 2b24 3bc5 e832 b2fc 223f
000000c0: 42a0 27fb bc0a b2d5 db0c bcc9 1f56 ecfa
000000d0: 115b fec9 187f e5c1 2c37 feb7 fe1f 5209
000000e0: 7f14 e269 2a9f f9c5 2824 20ff c9ef 28da
000000f0: d1d8 df8d a3f1 2d4b dbc1 cfba dd9e 57e8
31 38 14 81 121 -2 4 -2
-21 48 43 17 -36 -2 65 127
-30 40 84 25 84 31 78 -6
98 13 10 43 -31 12 -26 11
-28 10 -31 5 -19 -82 -13 -37
-103 -3 62 77 22 84 127 74
-1 37 -81 12 41 28 55 39
-11 -103 12 31 -76 -4 44 68
69 71 50 35 -63 -11 122 3
65 -54 68 25 -47 44 39 75
-38 -3 4 -42 90 -3 33 78
-127 99 -20 -33 41 -31 -53 48
-51 -92 57 -77 11 -19 -84 107
-31 -17 -88 -31 44 -8 5 -70
80 -46 -127 49 -57 41 -104 -114
-90 -23 77 -1 48 78 -3 36
7 -37 4 -14 -41 17 -11 -13
18 74 -20 -3 4 16 42 -33
36 -31 3 20 -50 10 6 4
-12 -15 5 34 26 -4 33 -127
-45 -12 -69 16 37 -127 19 -45
-70 -16 49 72 -28 -56 67 6
-30 17 -13 19 -41 -25 43 36
59 -59 -24 50 -78 -4 34 63
66 -96 39 -5 -68 10 -78 -43
-37 12 -68 -55 31 86 -20 -6
17 91 -2 -55 24 127 -27 -63
44 55 -2 -73 -2 31 82 9
127 20 -30 105 42 -97 -7 -59
40 36 32 -1 -55 -17 40 -38
-47 -40 -33 -115 -93 -15 45 75
-37 -63 -49 -70 -35 -98 87 -24

model/conv2d_11/Conv2D i1 [32, 1, 1, 8]
00000000: 5c81 291f f03e 1ef5 b1cf dce8 7f25 4643
00000010: 7fdb 1eb1 85cb 00c6 ca2a 2751 7fe5 0bbc
00000020: 3abc 74ee 247f 2912 3f81 cbe0 fdd2 cb34
00000030: 7f05 4596 f91b f310 05af c72d 01ee 813e
00000040: 7f57 2404 1906 1c1e 81ca 8505 6fe7 dd1d
00000050: bd81 d5e6 74c0 f6ec 8104 a342 c6fe 2c14
00000060: 502e c8b1 7f90 fbfc 5df3 bcb9 d1f9 397f
00000070: 81ef ef30 1c21 181d 957f 1029 18d0 fbbf
00000080: e7e9 e17f d1ac 5095 a10d a97f 28fc 16f3
00000090: 81f3 c50e eb76 1b4d de7f 2605 04e7 41d6
000000a0: 541d 2b0a 072b 810a d7df 7f02 f1c6 e017
000000b0: d04f 29f4 187f e90d 361a 8de9 f13d cb81
000000c0: 0788 b807 0bda 81f3 3fc5 507f 4329 5f9e
000000d0: ebc1 771c f881 f029 a1de e87f 0603 84e2
000000e0: e863 163f 8128 1624 3f43 db7f bfd7 06cd
000000f0: af7f d3f1 07a4 d407 7f4c 0719 e01c c032
92 -127 41 31 -16 62 30 -11
-79 -49 -36 -24 127 37 70 67
127 -37 30 -79 -123 -53 0 -58
-54 42 39 81 127 -27 11 -68
58 -68 116 -18 36 127 41 18
63 -127 -53 -32 -3 -46 -53 52
127 5 69 -106 -7 27 -13 16
5 -81 -57 45 1 -18 -127 62
127 87 36 4 25 6 28 30
-127 -54 -123 5 111 -25 -35 29
-67 -127 -43 -26 116 -64 -10 -20
-127 4 -93 66 -58 -2 44 20
80 46 -56 -79 127 -112 -5 -4
93 -13 -68 -71 -47 -7 57 127
-127 -17 -17 48 28 33 24 29
-107 127 16 41 24 -48 -5 -65
-25 -23 -31 127 -47 -84 80 -107
-95 13 -87 127 40 -4 22 -13
-127 -13 -59 14 -21 118 27 77
-34 127 38 5 4 -25 65 -42
84 29 43 10 7 43 -127 10
-41 -33 127 2 -15 -58 -32 23
-48 79 41 -12 24 127 -23 13
54 26 -115 -23 -15 61 -53 -127
7 -120 -72 7 11 -38 -127 -13
63 -59 80 127 67 41 95 -98
-21 -63 119 28 -8 -127 -16 41
-95 -34 -24 127 6 3 -124 -30
-24 99 22 63 -127 40 22 36
63 67 -37 127 -65 -41 6 -51
-81 127 -45 -15 7 -92 -44 7
127 76 7 25 -32 28 -64 50

model/conv2d_12/Conv2D i1 [8, 1, 1, 32]
00000000: 3f19 162f 1e1f fbe0 25cd f824 fde2 fa22
00000010: 8905 361a 45fa b606 b47f 06c0 2e5c c7e6
00000020: cdf4 287f 0517 1028 e205 e5e2 a309 2217
00000030: fe0f 2f4c cf32 0c1b 10fb 06e6 1a03 7e27
00000040: 1e11 f740 cf01 0216 a61a 210b 2d22 1ff5
00000050: 1f06 fd23 d20b 74d7 dd3b 0bdc cfe4 814b
00000060: f081 1505 1bef 06e3 1a15 43ba 3ce3 0e03
00000070: e6e1 1df9 0630 afbd cef5 7317 b6f4 1bf7
00000080: 20a6 11b3 0522 b313 3d81 2ffa 1a01 dd36
00000090: f0bd fd51 1122 515f 00cf c7a3 890e 39b1
000000a0: fe14 da30 fdf4 1ffd 15f1 234d 4fc9 1b01
000000b0: 0f16 e2f9 0148 163e f108 f57f f6fb 3308
000000c0: 1f81 461c 0401 f503 05f9 319a 09fc e6ea
000000d0: 0d0e 3add af38 f17e 4334 ca44 1617 abf5
000000e0: b294 eb25 00d0 1302 d47d 3b39 eddb c5ec
000000f0: cb4b f1be 2781 ccfe 91fb ad07 cf04 4723
63 25 22 47 30 31 -5 -32
37 -51 -8 36 -3 -30 -6 34
-119 5 54 26 69 -6 -74 6
-76 127 6 -64 46 92 -57 -26
-51 -12 40 127 5 23 16 40
-30 5 -27 -30 -93 9 34 23
-2 15 47 76 -49 50 12 27
16 -5 6 -26 26 3 126 39
30 17 -9 64 -49 1 2 22
-90 26 33 11 45 34 31 -11
31 6 -3 35 -46 11 116 -41
-35 59 11 -36 -49 -28 -127 75
-16 -127 21 5 27 -17 6 -29
26 21 67 -70 60 -29 14 3
-26 -31 29 -7 6 48 -81 -67
-50 -11 115 23 -74 -12 27 -9
32 -90 17 -77 5 34 -77 19
61 -127 47 -6 26 1 -35 54
-16 -67 -3 81 17 34 81 95
0 -49 -57 -93 -119 14 57 -79
-2 20 -38 48 -3 -12 31 -3
21 -15 35 77 79 -55 27 1
15 22 -30 -7 1 72 22 62
-15 8 -11 127 -10 -5 51 8
31 -127 70 28 4 1 -11 3
5 -7 49 -102 9 -4 -26 -22
13 14 58 -35 -81 56 -15 126
67 52 -54 68 22 23 -85 -11
-78 -108 -21 37 0 -48 19 2
-44 125 59 57 -19 -37 -59 -20
-53 75 -15 -66 39 -127 -52 -2
-111 -5 -83 7 -49 4 71 35

model/conv2d_13/Conv2D i1 [48, 1, 1, 8]
00000000: 02c4 20b1 af81 7596 f1bc a87f eddc 043b
00000010: f881 be21 6617 cefd 1981 e2c4 0e52 f62e
00000020: a70f ce7f 59a7 41d5 7ff3 a097 440c 4b2a
00000030: 7f09 b667 241e c72c a1a5 bbe8 fa81 3b8c
00000040: 2c25 ee2c 377f 9d14 2d56 55d3 7f3c 1b69
00000050: f2c7 39f0 0e7f 1306 eeee 5117 e0c2 cd7f
00000060: cfd4 0e41 7f96 0ecc ddf8 2bae 18bc 81f0
00000070: a1d6 2f0b ef3f 81bb dad9 9ce8 8156 c0e7
00000080: 672d 8182 6f24 68e1 c87f c102 25ea f93e
00000090: 19eb bbf3 e081 d808 b9aa 0381 1943 c11f
000000a0: eedb cc55 0d78 0481 c4e6 03a0 54f7 627f
000000b0: 3532 14d4 bea6 1781 cb1a ae7f 3fee e43d
000000c0: 727f e228 990c eb52 352e 7f1e 3718 c64e
000000d0: 29ef 81be f11a dbe3 0d81 25aa 1015 b4bd
000000e0: 7f0b ee4a 10a9 27ed b0ad c0c5 ddc0 81d0
000000f0: c7c6 d730 0681 68d9 7fc0 d00b f2b3 13fc
2 -60 32 -79 -81 -127 117 -106
-15 -68 -88 127 -19 -36 4 59
-8 -127 -66 33 102 23 -50 -3
25 -127 -30 -60 14 82 -10 46
-89 15 -50 127 89 -89 65 -43
127 -13 -96 -105 68 12 75 42
127 9 -74 103 36 30 -57 44
-95 -91 -69 -24 -6 -127 59 -116
44 37 -18 44 55 127 -99 20
45 86 85 -45 127 60 27 105
-14 -57 57 -16 14 127 19 6
-18 -18 81 23 -32 -62 -51 127
-49 -44 14 65 127 -106 14 -52
-35 -8 43 -82 24 -68 -127 -16
-95 -42 47 11 -17 63 -127 -69
-38 -39 -100 -24 -127 86 -64 -25
103 45 -127 -126 111 36 104 -31
-56 127 -63 2 37 -22 -7 62
25 -21 -69 -13 -32 -127 -40 8
-71 -86 3 -127 25 67 -63 31
-18 -37 -52 85 13 120 4 -127
-60 -26 3 -96 84 -9 98 127
53 50 20 -44 -66 -90 23 -127
-53 26 -82 127 63 -18 -28 61
114 127 -30 40 -103 12 -21 82
53 46 127 30 55 24 -58 78
41 -17 -127 -66 -15 26 -37 -29
13 -127 37 -86 16 21 -76 -67
127 11 -18 74 16 -87 39 -19
-80 -83 -64 -59 -35 -64 -127 -48
-57 -58 -41 48 6 -127 104 -39
127 -64 -48 11 -14 -77 19 -4

model/conv2d_14/Conv2D i1 [8, 1, 1, 48]
00000000: d100 15fc 10cf bf17 52d7 59c5 db7f f623
00000010: 1921 f5ea f4de f0f3 ad40 b607 41dd b5e1
00000020: 0aa0 03e4 d7f2 1e52 db03 4af1 419d f9b2
00000030: ca8a f1bb dbdf ca51 f1f8 6017 0bde 0d15
00000040: 3111 d0e7 2d4e 818e 04eb e60f 79f3 2f57
00000050: 5afe eb3c fc91 c6e0 c5b3 503a 0ee8 d80d
00000060: 81ae c321 2413 0019 0aeb e53f 50e0 26b0
00000070: 3bb3 f0de 07ef 1a2e 500f 2f3e dccd f219
00000080: c246 1127 fdf0 f3f4 527c fa55 3f02 358c
00000090: 0636 de69 aaa1 9d19 260e fafe 2b13 badd
000000a0: 4b08 26d8 4901 3be0 2045 b739 c5f8 d7c3
000000b0: 46ea 183f e452 e8fe 7fd5 d1fa cd2e e50b
000000c0: 4acb efcf d603 e257 e703 cbce 7f02 413d
000000d0: d809 b63d f831 e33e 17fa beb9 a5e0 b4ab
000000e0: 343f 12f7 45d5 01d5 42f0 2ff7 1000 51b1
000000f0: 12c8 19f1 f7d9 7407 16e4 37ca 9d4e 162e
-47 0 21 -4 16 -49 -65 23
82 -41 89 -59 -37 127 -10 35
25 33 -11 -22 -12 -34 -16 -13
-83 64 -74 7 65 -35 -75 -31
10 -96 3 -28 -41 -14 30 82
-37 3 74 -15 65 -99 -7 -78
-54 -118 -15 -69 -37 -33 -54 81
-15 -8 96 23 11 -34 13 21
49 17 -48 -25 45 78 -127 -114
4 -21 -26 15 121 -13 47 87
90 -2 -21 60 -4 -111 -58 -32
-59 -77 80 58 14 -24 -40 13
-127 -82 -61 33 36 19 0 25
10 -21 -27 63 80 -32 38 -80
59 -77 -16 -34 7 -17 26 46
80 15 47 62 -36 -51 -14 25
-62 70 17 39 -3 -16 -13 -12
82 124 -6 85 63 2 53 -116
6 54 -34 105 -86 -95 -99 25
38 14 -6 -2 43 19 -70 -35
75 8 38 -40 73 1 59 -32
32 69 -73 57 -59 -8 -41 -61
70 -22 24 63 -28 82 -24 -2
127 -43 -47 -6 -51 46 -27 11
74 -53 -17 -49 -42 3 -30 87
-25 3 -53 -50 127 2 65 61
-40 9 -74 61 -8 49 -29 62
23 -6 -66 -71 -91 -32 -76 -85
52 63 18 -9 69 -43 1 -43
66 -16 47 -9 16 0 81 -79
18 -56 25 -15 -9 -39 116 7
22 -28 55 -54 -99 78 22 46

model/conv2d_15/Conv2D i1 [48, 1, 1, 8]
00000000: 5602 7f37 58e5 102e 247d ca91 7fdf 81ad
00000010: c8bb 89ae fb21 7f2c 2076 4a5a 7f22 32fe
00000020: 8e81 c46e 8bfa bec3 b2d4 467f 4149 de14
00000030: b634 4f7f 9311 c8b1 152f 7fae ae78 c856
00000040: c17f c728 07f0 0811 d9e3 1d8f 8111 f5cc
00000050: fe65 b2a0 2118 815e 1e12 7ff3 2645 8e1b
00000060: 15fc e3f5 2726 7f63 4c54 574f b66f 81d0
00000070: 81e9 09f7 299b e2d6 8b81 37af 5b95 e440
00000080: fb14 fc05 ed7f 25e1 0ddd dccc d17f b8c6
00000090: fdc9 1281 e616 d599 055c 6a21 7ffd a7cb
000000a0: 3609 3181 fc4d 2254 1e24 1bf1 5425 812f
000000b0: d9f0 3845 7fba 2925 1814 819e 0e1b 03a1
000000c0: ed71 f887 239a 81d3 d581 103b 1cd9 0a18
000000d0: db4e 7fd1 3481 beeb eb4c 2b0a d381 5a08
000000e0: 5881 e801 1aa0 ba18 06f7 c381 3e36 7353
000000f0: 172d aa04 5458 8112 d65e 8133 0d13 b1dd
86 2 127 55 88 -27 16 46
36 125 -54 -111 127 -33 -127 -83
-56 -69 -119 -82 -5 33 127 44
32 118 74 90 127 34 50 -2
-114 -127 -60 110 -117 -6 -66 -61
-78 -44 70 127 65 73 -34 20
-74 52 79 127 -109 17 -56 -79
21 47 127 -82 -82 120 -56 86
-63 127 -57 40 7 -16 8 17
-39 -29 29 -113 -127 17 -11 -52
-2 101 -78 -96 33 24 -127 94
30 18 127 -13 38 69 -114 27
21 -4 -29 -11 39 38 127 99
76 84 87 79 -74 111 -127 -48
-127 -23 9 -9 41 -101 -30 -42
-117 -127 55 -81 91 -107 -28 64
-5 20 -4 5 -19 127 37 -31
13 -35 -36 -52 -47 127 -72 -58
-3 -55 18 -127 -26 22 -43 -103
5 92 106 33 127 -3 -89 -53
54 9 49 -127 -4 77 34 84
30 36 27 -15 84 37 -127 47
-39 -16 56 69 127 -70 41 37
24 20 -127 -98 14 27 3 -95
-19 113 -8 -121 35 -102 -127 -45
-43 -127 16 59 28 -39 10 24
-37 78 127 -47 52 -127 -66 -21
-21 76 43 10 -45 -127 90 8
88 -127 -24 1 26 -96 -70 24
6 -9 -61 -127 62 54 115 83
23 45 -86 4 84 88 -127 18
-42 94 -127 51 13 19 -79 -35

model/conv2d_16/Conv2D i1 [8, 1, 1, 48]
00000000: d6ad 20b2 98d0 fc7f 2119 f449 f504 7c03
00000010: 1ace fdcc eab9 eff0 42e9 18c7 ceb2 10d0
00000020: 1676 3362 150b f9f4 fab9 a1d6 d8eb bc16
00000030: c9b6 6dcf a70c 7fee b8d1 36ee 05ca 1678
00000040: f0cc d325 db27 521b c53d aca9 599a 1b14
00000050: 9ee2 2bc3 5af9 2537 bac4 e418 69d1 c705
00000060: bb29 26e8 23fd d8c4 029e d032 12e2 2de1
00000070: fa4e 000c 3127 e399 d83a 81e9 1749 38f4
00000080: 9deb 0a2e 22d5 57d5 2bfb 35da 4221 0ca6
00000090: d9fc 1524 38ac b40f 3a02 b108 bac6 fb30
000000a0: e1d2 31c4 32f1 adbe 0dc2 194a 241c 8155
000000b0: 0ecc 0c31 edd0 101a 64f7 dcdb d43c 21a9
000000c0: 5929 f8ba ca28 041f 0c92 2a24 0d14 15d7
000000d0: d61d 414a c806 98a1 13c4 b17f f821 bcc2
000000e0: f011 13fc 419c 4d14 2513 2e0b db17 1cf0
000000f0: f7d1 1710 08bf fb2f 0d1d ee4a 08d0 1a36
-42 -83 32 -78 -104 -48 -4 127
33 25 -12 73 -11 4 124 3
26 -50 -3 -52 -22 -71 -17 -16
66 -23 24 -57 -50 -78 16 -48
22 118 51 98 21 11 -7 -12
-6 -71 -95 -42 -40 -21 -68 22
-55 -74 109 -49 -89 12 127 -18
-72 -47 54 -18 5 -54 22 120
-16 -52 -45 37 -37 39 82 27
-59 61 -84 -87 89 -102 27 20
-98 -30 43 -61 90 -7 37 55
-70 -60 -28 24 105 -47 -57 5
-69 41 38 -24 35 -3 -40 -60
2 -98 -48 50 18 -30 45 -31
-6 78 0 12 49 39 -29 -103
-40 58 -127 -23 23 73 56 -12
-99 -21 10 46 34 -43 87 -43
43 -5 53 -38 66 33 12 -90
-39 -4 21 36 56 -84 -76 15
58 2 -79 8 -70 -58 -5 48
-31 -46 49 -60 50 -15 -83 -66
13 -62 25 74 36 28 -127 85
14 -52 12 49 -19 -48 16 26
100 -9 -36 -37 -44 60 33 -87
89 41 -8 -70 -54 40 4 31
12 -110 42 36 13 20 21 -41
-42 29 65 74 -56 6 -104 -95
19 -60 -79 127 -8 33 -68 -62
-16 17 19 -4 65 -100 77 20
37 19 46 11 -37 23 28 -16
-9 -47 23 16 8 -65 -5 47
13 29 -18 74 8 -48 26 54

model/conv2d_17/Conv2D i1 [48, 1, 1, 8]
00000000: 8183 503d 5c4c 153b d22f fc17 377f 60af
00000010: f4c0 40ab 127f aef8 b7e0 3f7f a400 88c4
00000020: 2010 8195 eaa8 ab97 f937 511f 7781 e7fc
00000030: 107c 27d7 7f40 0398 051f 297f c219 c9bb
00000040: 4d8d 815a 5767 b92d aa40 3217 2cee 7fe4
00000050: 0a40 3a0f c581 5419 cdf3 81eb d619 63b3
00000060: a660 8119 4517 933e db04 4c3e 06c6 81da
00000070: a7dd a3df 9d7f ecde 3b0f 09e8 2581 9be3
00000080: 48b4 8fa6 acf8 81c3 1d81 42d3 042e 9c05
00000090: 0681 f8fe d208 9560 a4f2 1fe5 9f0c 1a7f
000000a0: 2419 7fb9 5904 e342 359e 3a84 f07f 8ed5
000000b0: ef04 287f c913 b9ac cc39 7f0e 2712 e645
000000c0: 4fa7 7fc0 f72d f0d6 667f f8fc d266 4403
000000d0: 2eee f836 ff7f 4516 0ded 6812 b78c 7fe7
000000e0: 0400 dcce 813f ef1e 0c7f 9328 6d42 ade1
000000f0: 6723 9d07 ed7f 894c 2a02 bb81 3719 4a25
-127 -125 80 61 92 76 21 59
-46 47 -4 23 55 127 96 -81
-12 -64 64 -85 18 127 -82 -8
-73 -32 63 127 -92 0 -120 -60
32 16 -127 -107 -22 -88 -85 -105
-7 55 81 31 119 -127 -25 -4
16 124 39 -41 127 64 3 -104
5 31 41 127 -62 25 -55 -69
77 -115 -127 90 87 103 -71 45
-86 64 50 23 44 -18 127 -28
10 64 58 15 -59 -127 84 25
-51 -13 -127 -21 -42 25 99 -77
-90 96 -127 25 69 23 -109 62
-37 4 76 62 6 -58 -127 -38
-89 -35 -93 -33 -99 127 -20 -34
59 15 9 -24 37 -127 -101 -29
72 -76 -113 -90 -84 -8 -127 -61
29 -127 66 -45 4 46 -100 5
6 -127 -8 -2 -46 8 -107 96
-92 -14 31 -27 -97 12 26 127
36 25 127 -71 89 4 -29 66
53 -98 58 -124 -16 127 -114 -43
-17 4 40 127 -55 19 -71 -84
-52 57 127 14 39 18 -26 69
79 -89 127 -64 -9 45 -16 -42
102 127 -8 -4 -46 102 68 3
46 -18 -8 54 -1 127 69 22
13 -19 104 18 -73 -116 127 -25
4 0 -36 -50 -127 63 -17 30
12 127 -109 40 109 66 -83 -31
103 35 -99 7 -19 127 -119 76
42 2 -69 -127 55 25 74 37

model/conv2d_18/Conv2D i1 [16, 1, 1, 48]
00000000: 0f03 bf46 10c5 d12f 16dc 1af1 08fe 2e17
00000010: 181c 10d8 f4ef 7fab 1bdb 3e0a 2801 0438
00000020: da79 29cd 121d 130a 28e2 2401 e9ec 060f
00000030: e1ca 3d1a 352a 381c 3bf7 f009 262b 1bdf
00000040: 0b01 131e 00f0 f9c0 1905 2211 f0fd fce0
00000050: 17cc 0b81 e615 d71f fff7 f3d5 0ae8 2e11
00000060: 50d2 81a5 0c9d e6f5 b617 d4ec 0333 05f4
00000070: fc21 19e1 2288 158e ee15 dcd3 b9f8 2d4a
00000080: f5ff 891d 21fe c3e7 65bc 9489 4845 1723
00000090: e412 26b9 81d0 f021 2bd3 3b8c 053c 33d9
000000a0: dd11 fa5d 0aee 6b39 4e00 3a61 1ad2 d64b
000000b0: 0fc5 2577 cb4d b857 101f 02f1 34c1 1dc8
000000c0: 02f1 1de3 e03f 1dfc d7f7 0fd3 aa2d 1bc9
000000d0: 1c1b fd2a f05a 3ae1 a745 7fce eef0 c673
000000e0: a75c ca05 1092 e501 9d08 d9f1 3d32 9550
000000f0: f6fe c302 e0dc 151b c4f1 15de 0dee a33e
15 3 -65 70 16 -59 -47 47
22 -36 26 -15 8 -2 46 23
24 28 16 -40 -12 -17 127 -85
27 -37 62 10 40 1 4 56
-38 121 41 -51 18 29 19 10
40 -30 36 1 -23 -20 6 15
-31 -54 61 26 53 42 56 28
59 -9 -16 9 38 43 27 -33
11 1 19 30 0 -16 -7 -64
25 5 34 17 -16 -3 -4 -32
23 -52 11 -127 -26 21 -41 31
-1 -9 -13 -43 10 -24 46 17
80 -46 -127 -91 12 -99 -26 -11
-74 23 -44 -20 3 51 5 -12
-4 33 25 -31 34 -120 21 -114
-18 21 -36 -45 -71 -8 45 74
-11 -1 -119 29 33 -2 -61 -25
101 -68 -108 -119 72 69 23 35
-28 18 38 -71 -127 -48 -16 33
43 -45 59 -116 5 60 51 -39
-35 17 -6 93 10 -18 107 57
78 0 58 97 26 -46 -42 75
15 -59 37 119 -53 77 -72 87
16 31 2 -15 52 -63 29 -56
2 -15 29 -29 -32 63 29 -4
-41 -9 15 -45 -86 45 27 -55
28 27 -3 42 -16 90 58 -31
-89 69 127 -50 -18 -16 -58 115
-89 92 -54 5 16 -110 -27 1
-99 8 -39 -15 61 50 -107 80
-10 -2 -61 2 -32 -36 21 27
-60 -15 21 -34 13 -18 -93 62

model/conv2d_19/Conv2D i1 [96, 1, 1, 16]
00000000: 1659 7f07 33e2 18ef f7c1 c934 fc0c 0b6f
00000010: eac8 0aeb 0972 cee7 f718 7fa7 e60f b7cf
00000020: 4630 a344 9337 b965 baea c9fe 2c7f 5f36
00000030: fc17 bee4 7f03 ebc5 1912 0fef 4e34 091e
00000040: de35 d6b6 4b29 fee2 26bd 1b3e 6603 ca81
00000050: 0438 2302 cc7f 1faf 446d a9ed 0b4a 2922
00000060: e08a 1ccd f500 0e3e f53d 810f 0c87 344e
00000070: f8ea 1f4d 81bb 2b3a f367 afed 795e 474a
00000080: 03e6 df28 ec25 c028 fb1d 0ff9 dc32 4281
00000090: d83e 11e7 c781 fcb7 5353 dabb 33eb 2dbe
000000a0: 09dc ecda 047f e437 d744 32f1 190f dad3
000000b0: ed21 4cfa b5e0 0ac7 257f dad8 dd1f 0e1e
000000c0: 05ac b628 d9ca d2b3 f6d0 2e40 5681 91cf
000000d0: 057f c2b1 70ae decf f46a eccd 39cf 3a14
000000e0: dbcc f5e5 0c44 1857 89cb c947 5136 7fc7
000000f0: c66d ebf2 0041 2200 7e7f 2413 2b07 53d7
22 89 127 7 51 -30 24 -17
-9 -63 -55 52 -4 12 11 111
-22 -56 10 -21 9 114 -50 -25
-9 24 127 -89 -26 15 -73 -49
70 48 -93 68 -109 55 -71 101
-70 -22 -55 -2 44 127 95 54
-4 23 -66 -28 127 3 -21 -59
25 18 15 -17 78 52 9 30
-34 53 -42 -74 75 41 -2 -30
38 -67 27 62 102 3 -54 -127
4 56 35 2 -52 127 31 -81
68 109 -87 -19 11 74 41 34
-32 -118 28 -51 -11 0 14 62
-11 61 -127 15 12 -121 52 78
-8 -22 31 77 -127 -69 43 58
-13 103 -81 -19 121 94 71 74
3 -26 -33 40 -20 37 -64 40
-5 29 15 -7 -36 50 66 -127
-40 62 17 -25 -57 -127 -4 -73
83 83 -38 -69 51 -21 45 -66
9 -36 -20 -38 4 127 -28 55
-41 68 50 -15 25 15 -38 -45
-19 33 76 -6 -75 -32 10 -57
37 127 -38 -40 -35 31 14 30
5 -84 -74 40 -39 -54 -46 -77
-10 -48 46 64 86 -127 -111 -49
5 127 -62 -79 112 -82 -34 -49
-12 106 -20 -51 57 -49 58 20
-37 -52 -11 -27 12 68 24 87
-119 -53 -55 71 81 54 127 -57
-58 109 -21 -14 0 65 34 0
126 127 36 19 43 7 83 -41

model/conv2d_20/Conv2D i1 [16, 1, 1, 96]
00000000: 15e3 3740 060f fadf 0803 e6d5 e4cf e1e1
00000010: 1b1f e5b6 c0ed 2fdb d80b 3626 e1ed 1310
00000020: 0e14 30ea e111 08ac c1bb b042 3ce5 0de6
00000030: 16f4 f91d 057f 7427 1f07 26a7 e6fd 0f69
00000040: f7d3 2532 1f21 09ca 3907 e055 ec09 c334
00000050: 2018 5523 dce9 edcf 19ce ecef 8f1d 1be1
00000060: e5a7 ebf1 e3f1 090a f9f0 0d07 0536 1441
00000070: 45d8 d167 fa11 2807 23d0 26ea d11d fb70
00000080: dcea 53e6 dcf5 1bed cc0b 1ef8 f3e7 372f
00000090: 19db aeaf 0fef 23fc 08d2 ea46 28ef 23ee
000000a0: db08 f3f0 282a d301 2805 d2d2 2ee0 e6a9
000000b0: 5842 f417 0b05 81c5 f4ea 5d02 f038 2d0d
000000c0: f791 e749 f1eb 43ff ef10 f3e3 2b18 c450
000000d0: 253b c009 1723 ef56 eb3a 1707 d72d 48f8
000000e0: eec8 c410 09fc 9fed 181a e0eb 93ea fe22
000000f0: e91c f100 23db 7f10 05c3 dfc3 09f1 dfc7
21 -29 55 64 6 15 -6 -33
8 3 -26 -43 -28 -49 -31 -31
27 31 -27 -74 -64 -19 47 -37
-40 11 54 38 -31 -19 19 16
14 20 48 -22 -31 17 8 -84
-63 -69 -80 66 60 -27 13 -26
22 -12 -7 29 5 127 116 39
31 7 38 -89 -26 -3 15 105
-9 -45 37 50 31 33 9 -54
57 7 -32 85 -20 9 -61 52
32 24 85 35 -36 -23 -19 -49
25 -50 -20 -17 -113 29 27 -31
-27 -89 -21 -15 -29 -15 9 10
-7 -16 13 7 5 54 20 65
69 -40 -47 103 -6 17 40 7
35 -48 38 -22 -47 29 -5 112
-36 -22 83 -26 -36 -11 27 -19
-52 11 30 -8 -13 -25 55 47
25 -37 -82 -81 15 -17 35 -4
8 -46 -22 70 40 -17 35 -18
-37 8 -13 -16 40 42 -45 1
40 5 -46 -46 46 -32 -26 -87
88 66 -12 23 11 5 -127 -59
-12 -22 93 2 -16 56 45 13
-9 -111 -25 73 -15 -21 67 -1
-17 16 -13 -29 43 24 -60 80
37 59 -64 9 23 35 -17 86
-21 58 23 7 -41 45 72 -8
-18 -56 -60 16 9 -4 -97 -19
24 26 -32 -21 -109 -22 -2 34
-23 28 -15 0 35 -37 127 16
5 -61 -33 -61 9 -15 -33 -57

model/conv2d_21/Conv2D i1 [96, 1, 1, 16]
00000000: eb16 b7e6 f415 ea1c 67a8 ebbc f981 000a
00000010: 0378 2d49 591c d6b0 8136 4f17 0118 06f6
00000020: 81cd edbc f883 347a 3022 c812 1c30 0a1d
00000030: fb19 2ae4 ecb9 1320 e17f 1503 0eed 3bc8
00000040: 3854 2add 4627 bdaf 16fe d3c9 a028 0281
00000050: 13f6 0647 1740 c87f e6eb f0e9 d7af 3035
00000060: 8130 45e7 01d3 8d4d 2c25 91de d68f 0bf5
00000070: 2c30 974b 3e8a 4a1d 2a81 8ff7 2642 3414
00000080: 81eb 6bda d8cd 2f19 035e fe43 bcd6 f5c8
00000090: fd34 08ae 0d00 3101 1517 6b23 8108 09f6
000000a0: c6e6 46a8 d33f e405 1120 1d52 ee7f e2fe
000000b0: f0ef 41e8 bcb8 cf09 4eee 5305 2e3b cb81
000000c0: 06d9 e5ff 1d31 b819 32fd 3a11 fb2b 2f81
000000d0: 441d 74df cde2 1d1d f7d1 dee2 b940 7fd5
000000e0: 4c7f 1f1a 5cfb cb6a 3a31 5d34 cad9 c830
000000f0: 2637 2af0 57d0 0b11 cff6 7fd2 5fc9 21ee
-21 22 -73 -26 -12 21 -22 28
103 -88 -21 -68 -7 -127 0 10
3 120 45 73 89 28 -42 -80
-127 54 79 23 1 24 6 -10
-127 -51 -19 -68 -8 -125 52 122
48 34 -56 18 28 48 10 29
-5 25 42 -28 -20 -71 19 32
-31 127 21 3 14 -19 59 -56
56 84 42 -35 70 39 -67 -81
22 -2 -45 -55 -96 40 2 -127
19 -10 6 71 23 64 -56 127
-26 -21 -16 -23 -41 -81 48 53
-127 48 69 -25 1 -45 -115 77
44 37 -111 -34 -42 -113 11 -11
44 48 -105 75 62 -118 74 29
42 -127 -113 -9 38 66 52 20
-127 -21 107 -38 -40 -51 47 25
3 94 -2 67 -68 -42 -11 -56
-3 52 8 -82 13 0 49 1
21 23 107 35 -127 8 9 -10
-58 -26 70 -88 -45 63 -28 5
17 32 29 82 -18 127 -30 -2
-16 -17 65 -24 -68 -72 -49 9
78 -18 83 5 46 59 -53 -127
6 -39 -27 -1 29 49 -72 25
50 -3 58 17 -5 43 47 -127
68 29 116 -33 -51 -30 29 29
-9 -47 -34 -30 -71 64 127 -43
76 127 31 26 92 -5 -53 106
58 49 93 52 -54 -39 -56 48
38 55 42 -16 87 -48 11 17
-49 -10 127 -46 95 -55 33 -18

model/conv2d_22/Conv2D i1 [16, 1, 1, 96]
00000000: 0f51 3019 3132 44d2 544c 7fe3 ed15 65db
00000010: e4c7 41d6 c44a 1b2a c3dc 15f5 01f3 f50f
00000020: 3df6 f8fc b277 ebd9 0a25 1015 1f1e 3ce9
00000030: 2a5f 3521 21dd be36 d7ef c24c fab7 aaea
00000040: 2341 30bd ebda dded 230e 07c7 16da 2a17
00000050: c54f 48fc bbef bfd8 6800 7ebb b503 e9d3
00000060: ec0d 3b4e 3814 000b 3de3 f314 23f1 e83b
00000070: ddef ba57 2308 3809 40f8 14ea 1adb f602
00000080: 0919 aab4 3cef 2130 dce3 c4fa 427f 3214
00000090: 49f5 ec32 24a4 ffbd 343e f339 811f a8f1
000000a0: 0f17 42f0 e925 27c9 ef21 17ec 9e25 13d2
000000b0: ff45 e332 b134 97fa f7f2 01fe acd5 2c0c
000000c0: 16d5 3ec8 e4f9 0ddf add2 f902 ee3b dfe9
000000d0: 011e 9657 0c2a 1393 fbe0 8d32 67cf f926
000000e0: ca47 caf7 faa6 4d18 183a dddb df27 57cf
000000f0: 92e2 a2f5 f6f6 2dfc 9df9 25ef 0337 0df9
15 81 48 25 49 50 68 -46
84 76 127 -29 -19 21 101 -37
-28 -57 65 -42 -60 74 27 42
-61 -36 21 -11 1 -13 -11 15
61 -10 -8 -4 -78 119 -21 -39
10 37 16 21 31 30 60 -23
42 95 53 33 33 -35 -66 54
-41 -17 -62 76 -6 -73 -86 -22
35 65 48 -67 -21 -38 -35 -19
35 14 7 -57 22 -38 42 23
-59 79 72 -4 -69 -17 -65 -40
104 0 126 -69 -75 3 -23 -45
-20 13 59 78 56 20 0 11
61 -29 -13 20 35 -15 -24 59
-35 -17 -70 87 35 8 56 9
64 -8 20 -22 26 -37 -10 2
9 25 -86 -76 60 -17 33 48
-36 -29 -60 -6 66 127 50 20
73 -11 -20 50 36 -92 -1 -67
52 62 -13 57 -127 31 -88 -15
15 23 66 -16 -23 37 39 -55
-17 33 23 -20 -98 37 19 -46
-1 69 -29 50 -79 52 -105 -6
-9 -14 1 -2 -84 -43 44 12
22 -43 62 -56 -28 -7 13 -33
-83 -46 -7 2 -18 59 -33 -23
1 30 -106 87 12 42 19 -109
-5 -32 -115 50 103 -49 -7 38
-54 71 -54 -9 -6 -90 77 24
24 58 -35 -37 -33 39 87 -49
-110 -30 -94 -11 -10 -10 45 -4
-99 -7 37 -17 3 55 13 -7

model/conv2d_23/Conv2D i1 [96, 1, 1, 16]
00000000: eb1b 7f31 21c6 be0e e60d ad1f 140a 6edc
00000010: 2e1c 8ffe cd62 d489 2c81 3949 3676 c0ea
00000020: 7f8d 4643 59f9 edd7 25ca ffcf fd3d aa4b
00000030: 51e0 8e81 3948 f45e f30f cc46 7e67 2c86
00000040: 8100 f6b8 7885 e806 4004 0b63 df41 edcd
00000050: b803 de93 1aa6 feba e169 1529 5428 0681
00000060: 4839 1645 0120 d4bf cdb1 8102 a64a 30b7
00000070: 8133 cc0d 47ae ff29 fdf4 2479 4d0b d2de
00000080: eadc 0507 d18e 9bb0 3edf 1ffb 210d 7f10
00000090: 0adc b573 415c 0c01 0b81 dd07 ebdb 2713
000000a0: 81e8 ba31 b9f8 b407 bc0d f9fa dfb9 53cd
000000b0: fcf0 2700 13f0 02f5 0dda 29df ef3b 7f1b
000000c0: e1ff 3119 810e 8867 2191 cddc a41e c572
000000d0: f47f 50e7 11f1 b824 e733 1130 0d3e fac8
000000e0: 0217 11d2 fcbe ca3d e806 020f 8137 fc3d
000000f0: 377f 15ea f1df 2fe3 38e6 f5a1 e30d ef97
-21 27 127 49 33 -58 -66 14
-26 13 -83 31 20 10 110 -36
46 28 -113 -2 -51 98 -44 -119
44 -127 57 73 54 118 -64 -22
127 -115 70 67 89 -7 -19 -41
37 -54 -1 -49 -3 61 -86 75
81 -32 -114 -127 57 72 -12 94
-13 15 -52 70 126 103 44 -122
-127 0 -10 -72 120 -123 -24 6
64 4 11 99 -33 65 -19 -51
-72 3 -34 -109 26 -90 -2 -70
-31 105 21 41 84 40 6 -127
72 57 22 69 1 32 -44 -65
-51 -79 -127 2 -90 74 48 -73
-127 51 -52 13 71 -82 -1 41
-3 -12 36 121 77 11 -46 -34
-22 -36 5 7 -47 -114 -101 -80
62 -33 31 -5 33 13 127 16
10 -36 -75 115 65 92 12 1
11 -127 -35 7 -21 -37 39 19
-127 -24 -70 49 -71 -8 -76 7
-68 13 -7 -6 -33 -71 83 -51
-4 -16 39 0 19 -16 2 -11
13 -38 41 -33 -17 59 127 27
-31 -1 49 25 -127 14 -120 103
33 -111 -51 -36 -92 30 -59 114
-12 127 80 -25 17 -15 -72 36
-25 51 17 48 13 62 -6 -56
2 23 17 -46 -4 -66 -54 61
-24 6 2 15 -127 55 -4 61
55 127 21 -22 -15 -33 47 -29
56 -26 -11 -95 -29 13 -17 -105

model/conv2d_24/Conv2D i1 [16, 1, 1, 96]
00000000: 1a2c 666d 04fe 69e9 fce6 340c dfa0 cf99
00000010: ecdf fdc7 feb1 d817 73f0 2c53 ade7 0d09
00000020: 50e7 e012 47f3 e9bd 2601 edfa d9ef fa05
00000030: 261b 58d0 6fd8 b511 10ed 35eb 14e7 f823
00000040: cbde 1e67 4a0a fe9c 31d1 edef c817 bb60
00000050: 7f19 b7db d0c3 afec 08fa 622c 86fd 3eb7
00000060: 0f03 29fb d1fe 149c 312b 28c5 c504 3dd1
00000070: eede d2d5 256d fdfb 0e09 462e b7e9 092c
00000080: 0de6 bebf 3cc4 02fa cb1e e10b 4421 56bc
00000090: 2c19 4fcc 191c 142e 20da 3942 08e4 c2b3
000000a0: bb0d 0ead 54b8 e7c4 e82c cdf3 d0f0 1af3
000000b0: 7f78 c135 3212 2c09 3933 5902 e4fd d016
000000c0: adec ebe6 fd45 ad17 363c 30b2 af3d f725
000000d0: 2531 fb32 4c4b e41e 032d 38ff fe2c 133d
000000e0: 2333 c5e3 cbe2 2d26 1dc9 1c2c 230b f1ca
000000f0: 3917 8115 b92b 221a 0313 de59 0dc3 d21e
26 44 102 109 4 -2 105 -23
-4 -26 52 12 -33 -96 -49 -103
-20 -33 -3 -57 -2 -79 -40 23
115 -16 44 83 -83 -25 13 9
80 -25 -32 18 71 -13 -23 -67
38 1 -19 -6 -39 -17 -6 5
38 27 88 -48 111 -40 -75 17
16 -19 53 -21 20 -25 -8 35
-53 -34 30 103 74 10 -2 -100
49 -47 -19 -17 -56 23 -69 96
127 25 -73 -37 -48 -61 -81 -20
8 -6 98 44 -122 -3 62 -73
15 3 41 -5 -47 -2 20 -100
49 43 40 -59 -59 4 61 -47
-18 -34 -46 -43 37 109 -3 -5
14 9 70 46 -73 -23 9 44
13 -26 -66 -65 60 -60 2 -6
-53 30 -31 11 68 33 86 -68
44 25 79 -52 25 28 20 46
32 -38 57 66 8 -28 -62 -77
-69 13 14 -83 84 -72 -25 -60
-24 44 -51 -13 -48 -16 26 -13
127 120 -63 53 50 18 44 9
57 51 89 2 -28 -3 -48 22
-83 -20 -21 -26 -3 69 -83 23
54 60 48 -78 -81 61 -9 37
37 49 -5 50 76 75 -28 30
3 45 56 -1 -2 44 19 61
35 51 -59 -29 -53 -30 45 38
29 -55 28 44 35 11 -15 -54
57 23 -127 21 -71 43 34 26
3 19 -34 89 13 -61 -46 30

model/conv2d_25/Conv2D i1 [96, 1, 1, 16]
00000000: 1b14 125b d007 7fde e40a fcf7 e4bc 602d
00000010: fe15 1119 8102 4004 2867 f506 0a36 25d6
00000020: 1f12 23fe d815 d2b9 6bc6 61f5 3c56 7f2b
00000030: ee3b f781 2002 32b1 0edf 1d99 08e5 22c9
00000040: e799 5712 0d81 e8dd 43cd 1652 c338 2401
00000050: 2d0e 1d15 19f6 10e1 1481 5af9 3e31 1d42
00000060: 0dd8 2b1a de05 60df 25e7 6015 d07f 57de
00000070: 81f5 3306 fb17 b10d d530 9203 1af7 4309
00000080: f0cb ccbd 5eb6 fd0e e2ec 7f2b fce6 af90
00000090: a756 0ddf 0aff 1426 1c1e 067f 19a1 1eeb
000000a0: cde9 1a22 1400 d609 11d4 0a7f 05d5 4303
000000b0: e87f 4f4d 1d38 99de f109 33ca 2f03 1807
000000c0: b85c e253 e011 e4ea 8f3e 0581 f6d2 2732
000000d0: 0d27 1e03 02d5 e8d9 5b09 370e 7f31 6845
000000e0: c473 157f fa98 e6cb 6abb 4ff9 ca0e 16f6
000000f0: 9d3e 43e3 eda0 9f2a 5181 f1a5 cc3d 39d3
27 20 18 91 -48 7 127 -34
-28 10 -4 -9 -28 -68 96 45
-2 21 17 25 -127 2 64 4
40 103 -11 6 10 54 37 -42
31 18 35 -2 -40 21 -46 -71
107 -58 97 -11 60 86 127 43
-18 59 -9 -127 32 2 50 -79
14 -33 29 -103 8 -27 34 -55
-25 -103 87 18 13 -127 -24 -35
67 -51 22 82 -61 56 36 1
45 14 29 21 25 -10 16 -31
20 -127 90 -7 62 49 29 66
13 -40 43 26 -34 5 96 -33
37 -25 96 21 -48 127 87 -34
-127 -11 51 6 -5 23 -79 13
-43 48 -110 3 26 -9 67 9
-16 -53 -52 -67 94 -74 -3 14
-30 -20 127 43 -4 -26 -81 -112
-89 86 13 -33 10 -1 20 38
28 30 6 127 25 -95 30 -21
-51 -23 26 34 20 0 -42 9
17 -44 10 127 5 -43 67 3
-24 127 79 77 29 56 -103 -34
-15 9 51 -54 47 3 24 7
-72 92 -30 83 -32 17 -28 -22
-113 62 5 -127 -10 -46 39 50
13 39 30 3 2 -43 -24 -39
91 9 55 14 127 49 104 69
-60 115 21 127 -6 -104 -26 -53
106 -69 79 -7 -54 14 22 -10
-99 62 67 -29 -19 -96 -97 42
81 -127 -15 -91 -52 61 57 -45

model/conv2d_26/Conv2D i1 [16, 1, 1, 96]
00000000: e5f7 f3e0 2818 5868 f973 bf18 14de 47cf
00000010: 5022 f702 560c 4ef9 9208 c315 2f04 cff3
00000020: 0d12 04f2 c413 37d0 04e8 1d0b 06c9 44bb
00000030: e5f0 36ec 1ac8 f9eb db35 f4cc d5c7 d522
00000040: e2ea 3800 d47f e4bf 5be8 e84f f112 e42d
00000050: 2467 0b18 2341 0922 ffeb 060b ebf8 1c21
00000060: c863 0735 d90f 21f2 dacb 0c3c ee0a e518
00000070: 4b8b d2c5 fac5 5b41 37ff fa3c ad67 1d52
00000080: f004 ebc0 0e95 c200 7f1f 2703 c71a 22ee
00000090: bf43 e5ce 09d4 0b9a b903 e206 2c28 2fec
000000a0: ffcc e273 030a b3b6 bf51 d4e8 1f02 6dd1
000000b0: f324 100e dfd4 02e5 1d60 31ca 16dd 3404
000000c0: d0e5 2641 e2df 81aa 26d2 1c4a 1605 e73e
000000d0: caf6 0fd3 9f16 ea69 1315 e516 c617 2343
000000e0: bd5f 4800 18dd c3e8 eb21 42d5 ef14 f817
000000f0: d454 2211 14c9 13d2 d6dc f25d 2944 25bc
-27 -9 -13 -32 40 24 88 104
-7 115 -65 24 20 -34 71 -49
80 34 -9 2 86 12 78 -7
-110 8 -61 21 47 4 -49 -13
13 18 4 -14 -60 19 55 -48
4 -24 29 11 6 -55 68 -69
-27 -16 54 -20 26 -56 -7 -21
-37 53 -12 -52 -43 -57 -43 34
-30 -22 56 0 -44 127 -28 -65
91 -24 -24 79 -15 18 -28 45
36 103 11 24 35 65 9 34
-1 -21 6 11 -21 -8 28 33
-56 99 7 53 -39 15 33 -14
-38 -53 12 60 -18 10 -27 24
75 -117 -46 -59 -6 -59 91 65
55 -1 -6 60 -83 103 29 82
-16 4 -21 -64 14 -107 -62 0
127 31 39 3 -57 26 34 -18
-65 67 -27 -50 9 -44 11 -102
-71 3 -30 6 44 40 47 -20
-1 -52 -30 115 3 10 -77 -74
-65 81 -44 -24 31 2 109 -47
-13 36 16 14 -33 -44 2 -27
29 96 49 -54 22 -35 52 4
-48 -27 38 65 -30 -33 -127 -86
38 -46 28 74 22 5 -25 62
-54 -10 15 -45 -97 22 -22 105
19 21 -27 22 -58 23 35 67
-67 95 72 0 24 -35 -61 -24
-21 33 66 -43 -17 20 -8 23
-44 84 34 17 20 -55 19 -46
-42 -36 -14 93 41 68 37 -68

model/conv2d_27/Conv2D i1 [96, 1, 1, 16]
00000000: c406 e3db fb0c 01bc 1b0c 0d60 d27f 2836
00000010: 4022 d5e3 7f4b dab3 8ce9 f6d8 0ce1 065b
00000020: 0018 6bf2 ffd4 e7f7 1f81 3916 17f0 ffe3
00000030: 6013 17eb 1228 e7b9 fced 078f 714a 7fc4
00000040: e0d5 1831 f36b df21 c817 fa81 e918 d8b6
00000050: 73b6 7f19 e533 de1c ff8a 0241 3aeb f71b
00000060: f4dc fbfa 187f dbcb 09f0 0bf0 ede5 ffbc
00000070: a8cf 6aa8 0333 e1ea 1457 84e3 7fa9 ba7b
00000080: 02e9 294c 7ff3 f853 0903 0425 46cf 3709
00000090: eeec 0dbb a68e 0dcc e349 4d0d 1ce0 0e81
000000a0: c8fe fdcf 75c4 18b9 e481 fb25 0ef9 0ce4
000000b0: 0e17 34d3 f881 011f 46c6 4feb 3470 e9b4
000000c0: b814 81df 3e69 ada4 3d09 09ea f8d3 d40a
000000d0: 7231 8121 1849 fb35 43a1 6339 9f4e 81ff
000000e0: e912 e30e fb81 e9d7 27f3 0041 bce3 eac7
000000f0: f7c4 1ff3 7f59 26df 0210 f1c0 dd4c ed44
-60 6 -29 -37 -5 12 1 -68
27 12 13 96 -46 127 40 54
64 34 -43 -29 127 75 -38 -77
-116 -23 -10 -40 12 -31 6 91
0 24 107 -14 -1 -44 -25 -9
31 -127 57 22 23 -16 -1 -29
96 19 23 -21 18 40 -25 -71
-4 -19 7 -113 113 74 127 -60
-32 -43 24 49 -13 107 -33 33
-56 23 -6 -127 -23 24 -40 -74
115 -74 127 25 -27 51 -34 28
-1 -118 2 65 58 -21 -9 27
-12 -36 -5 -6 24 127 -37 -53
9 -16 11 -16 -19 -27 -1 -68
-88 -49 106 -88 3 51 -31 -22
20 87 -124 -29 127 -87 -70 123
2 -23 41 76 127 -13 -8 83
9 3 4 37 70 -49 55 9
-18 -20 13 -69 -90 -114 13 -52
-29 73 77 13 28 -32 14 -127
-56 -2 -3 -49 117 -60 24 -71
-28 -127 -5 37 14 -7 12 -28
14 23 52 -45 -8 -127 1 31
70 -58 79 -21 52 112 -23 -76
-72 20 -127 -33 62 105 -83 -92
61 9 9 -22 -8 -45 -44 10
114 49 -127 33 24 73 -5 53
67 -95 99 57 -97 78 -127 -1
-23 18 -29 14 -5 -127 -23 -41
39 -13 0 65 -68 -29 -22 -57
-9 -60 31 -13 127 89 38 -33
2 16 -15 -64 -35 76 -19 68

model/conv2d_28/Conv2D i1 [24, 1, 1, 96]
00000000: 0b31 f02a f5fb f636 fe26 31ed 1f10 3ad8
00000010: cf1c 01fa 0d4d 15d4 18c7 08fc 0b31 1618
00000020: 1afa 07a5 2efe 07d7 0cf4 ea04 f8f2 251c
00000030: 1308 f0eb ec02 d8f5 b312 d507 f9ba f308
00000040: ccf3 fcda 1be3 f81d 21f8 0804 7fab fd16
00000050: 20c4 0e3c d729 f0fb b412 f0dc e908 21e4
00000060: 12f5 e7ef fafe de2b eedf c6d4 f1f4 3006
00000070: 1618 0926 1d01 03ed fcfa eced f9f9 ac7f
00000080: fc09 04eb 2d25 e90b ea0f e22f fe05 b909
00000090: 4846 f0fc 16e5 17fc 0103 180a fe14 2afd
000000a0: 0e15 f13d f636 f504 20db a9a0 05fa 12ed
000000b0: dafe 09fd fbe4 2f0f eef0 0cfd dff4 2efa
000000c0: 221e 04c4 0a08 1619 24c8 3bf8 e81c 07eb
000000d0: fdf0 e019 0820 1f06 c1f1 f40c f816 21ed
000000e0: ecd3 0f02 35d4 0e0b 81e2 f608 2603 f208
000000f0: 04f2 e8d9 4cfd ea31 2cc4 08bd f8fd ece9
11 49 -16 42 -11 -5 -10 54
-2 38 49 -19 31 16 58 -40
-49 28 1 -6 13 77 21 -44
24 -57 8 -4 11 49 22 24
26 -6 7 -91 46 -2 7 -41
12 -12 -22 4 -8 -14 37 28
19 8 -16 -21 -20 2 -40 -11
-77 18 -43 7 -7 -70 -13 8
-52 -13 -4 -38 27 -29 -8 29
33 -8 8 4 127 -85 -3 22
32 -60 14 60 -41 41 -16 -5
-76 18 -16 -36 -23 8 33 -28
18 -11 -25 -17 -6 -2 -34 43
-18 -33 -58 -44 -15 -12 48 6
22 24 9 38 29 1 3 -19
-4 -6 -20 -19 -7 -7 -84 127
-4 9 4 -21 45 37 -23 11
-22 15 -30 47 -2 5 -71 9
72 70 -16 -4 22 -27 23 -4
1 3 24 10 -2 20 42 -3
14 21 -15 61 -10 54 -11 4
32 -37 -87 -96 5 -6 18 -19
-38 -2 9 -3 -5 -28 47 15
-18 -16 12 -3 -33 -12 46 -6
34 30 4 -60 10 8 22 25
36 -56 59 -8 -24 28 7 -21
-3 -16 -32 25 8 32 31 6
-63 -15 -12 12 -8 22 33 -19
-20 -45 15 2 53 -44 14 11
-127 -30 -10 8 38 3 -14 8
4 -14 -24 -39 76 -3 -22 49
44 -60 8 -67 -8 -3 -20 -23

model/conv2d_29/Conv2D i1 [136, 1, 1, 24]
00000000: 02e4 f948 05f3 d506 d23a 25cb 123f f521
00000010: 810a fbe3 fbcf 53d8 4207 18d9 dec9 f32a
00000020: 3766 3014 65fd 3b07 e381 4d24 21ca 9801
00000030: e51a ce81 dfc3 e7f3 fc12 bf26 0212 e9fe
00000040: 298e 166a eb08 f90b 5db7 819d ff3e fd1b
00000050: 2665 1039 f8f8 303b 920b c313 f520 23fa
00000060: 1719 8c9a df30 7f03 21fe dcba 35bf e0d9
00000070: be33 09dc 30f0 a619 eaae 7f3f dafc 441a
00000080: 08a8 db67 380f c134 149e 5fc0 e9e0 bb5d
00000090: f617 161a 2c38 54d5 0019 fe2e 335d d7d7
000000a0: 8481 303b d38e ea46 08a7 4f11 2ddd 7fea
000000b0: 4bef 0201 fe13 f3fe 03fa 3be1 02e7 17ed
000000c0: c002 122c c29a 8143 6948 573f db4e e3d3
000000d0: 20e4 b43b eabe f7c5 37fd 00dd f621 2401
000000e0: 30dd f77f f90e fcdd 3e14 dcd9 e2e1 0e2f
000000f0: 7f08 04e4 d201 15e4 e709 071e ebf1 1de7
2 -28 -7 72 5 -13 -43 6
-46 58 37 -53 18 63 -11 33
-127 10 -5 -29 -5 -49 83 -40
66 7 24 -39 -34 -55 -13 42
55 102 48 20 101 -3 59 7
-29 -127 77 36 33 -54 -104 1
-27 26 -50 -127 -33 -61 -25 -13
-4 18 -65 38 2 18 -23 -2
41 -114 22 106 -21 8 -7 11
93 -73 -127 -99 -1 62 -3 27
38 101 16 57 -8 -8 48 59
-110 11 -61 19 -11 32 35 -6
23 25 -116 -102 -33 48 127 3
33 -2 -36 -70 53 -65 -32 -39
-66 51 9 -36 48 -16 -90 25
-22 -82 127 63 -38 -4 68 26
8 -88 -37 103 56 15 -63 52
20 -98 95 -64 -23 -32 -69 93
-10 23 22 26 44 56 84 -43
0 25 -2 46 51 93 -41 -41
-124 -127 48 59 -45 -114 -22 70
8 -89 79 17 45 -35 127 -22
75 -17 2 1 -2 19 -13 -2
3 -6 59 -31 2 -25 23 -19
-64 2 18 44 -62 -102 -127 67
105 72 87 63 -37 78 -29 -45
32 -28 -76 59 -22 -66 -9 -59
55 -3 0 -35 -10 33 36 1
48 -35 -9 127 -7 14 -4 -35
62 20 -36 -39 -30 -31 14 47
127 8 4 -28 -46 1 21 -28
-25 9 7 30 -21 -15 29 -25

model/conv2d_30/Conv2D i1 [24, 1, 1, 136]
00000000: 003c 2a11 ec1a 0c49 f73c 4512 d10b f791
00000010: 1204 682b bce9 e116 ce08 2103 9e45 f9ff
00000020: 0e19 f23f 9ddc 3342 c132 da08 e9e1 4720
00000030: d6fb ce02 cbf2 0cdd ad12 2ca9 f14b d6fd
00000040: 3e09 813e 1713 e29f 9ac3 85f3 e0ea e4eb
00000050: 12e7 d8d5 a034 e7c3 3dc9 fa0f e0c2 bb18
00000060: 161b 3cea ecdc 1bd5 02d6 ec9a c7c2 43e6
00000070: 05ec b15a bf08 4837 3128 1b2e 03e3 20d1
00000080: d6dd 12e3 16ec f222 18e9 d425 c2f6 da96
00000090: fdeb f915 30f6 372d 0d1b e9d2 c33e f120
000000a0: a20c 0ce5 f451 3603 0b07 1590 f420 f50f
000000b0: 034f 1505 f800 edf6 fa02 061d 131c 0814
000000c0: 25fc f70d 1e29 f81d 214f cd06 1723 4bf2
000000d0: 4222 3400 1823 021d 4da1 f47f ae48 e873
000000e0: c8ea e2f2 28af ee1b 10f5 2cb2 f7cd cb0c
000000f0: 32df 1417 d7a5 deea 4d26 e4f0 19ba 171c
0 60 42 17 -20 26 12 73
-9 60 69 18 -47 11 -9 -111
18 4 104 43 -68 -23 -31 22
-50 8 33 3 -98 69 -7 -1
14 25 -14 63 -99 -36 51 66
-63 50 -38 8 -23 -31 71 32
-42 -5 -50 2 -53 -14 12 -35
-83 18 44 -87 -15 75 -42 -3
62 9 -127 62 23 19 -30 -97
-102 -61 -123 -13 -32 -22 -28 -21
18 -25 -40 -43 -96 52 -25 -61
61 -55 -6 15 -32 -62 -69 24
22 27 60 -22 -20 -36 27 -43
2 -42 -20 -102 -57 -62 67 -26
5 -20 -79 90 -65 8 72 55
49 40 27 46 3 -29 32 -47
-42 -35 18 -29 22 -20 -14 34
24 -23 -44 37 -62 -10 -38 -106
-3 -21 -7 21 48 -10 55 45
13 27 -23 -46 -61 62 -15 32
-94 12 12 -27 -12 81 54 3
11 7 21 -112 -12 32 -11 15
3 79 21 5 -8 0 -19 -10
-6 2 6 29 19 28 8 20
37 -4 -9 13 30 41 -8 29
33 79 -51 6 23 35 75 -14
66 34 52 0 24 35 2 29
77 -95 -12 127 -82 72 -24 115
-56 -22 -30 -14 40 -81 -18 27
16 -11 44 -78 -9 -51 -53 12
50 -33 20 23 -41 -91 -34 -22
77 38 -28 -16 25 -70 23 28

model/conv2d_31/Conv2D i1 [136, 1, 1, 24]
00000000: c038 0506 c77f dee2 eeec 06b6 a526 4cc0
00000010: 20d6 e9e6 3833 0fc2 e11b 91f7 9203 d3fe
00000020: e286 dc7f 5701 182f 16a2 2925 9adb 9405
00000030: bf42 28a6 0f7f f30e 12ab b9da 4c55 4e98
00000040: 08d2 5e15 2313 b0f6 60b2 2bd1 a17f 1e2f
00000050: 52ef 07f5 eefd d155 1458 420c 36d3 5260
00000060: 280b 1334 fdf9 7ffa c9bd e812 0df5 2c3b
00000070: c9ee 1039 270e 060a c65a f6db f12d a12a
00000080: cb11 08e9 8ea5 7f17 3633 b4f3 1425 2d1d
00000090: 0981 0e2b 3a20 05ff 2224 31e9 41e8 f4fa
000000a0: 24ec 149a 3d0d ebd9 7bf0 2a22 317e f9e4
000000b0: 5c02 255f e39f 39ea c3fa 0a70 7ff7 0d13
000000c0: 10da d8f0 2a81 79c2 8156 0e04 be59 ec03
000000d0: c622 2fb1 e1f8 4603 b3b8 2a06 0a02 7f02
000000e0: c6cf 0fe3 2fef d5be 06d3 300a 3704 f70f
000000f0: 38d1 395a 9120 ea20 ac0f 032a 74aa 3582
-64 56 5 6 -57 127 -34 -30
-18 -20 6 -74 -91 38 76 -64
32 -42 -23 -26 56 51 15 -62
-31 27 -111 -9 -110 3 -45 -2
-30 -122 -36 127 87 1 24 47
22 -94 41 37 -102 -37 -108 5
-65 66 40 -90 15 127 -13 14
18 -85 -71 -38 76 85 78 -104
8 -46 94 21 35 19 -80 -10
96 -78 43 -47 -95 127 30 47
82 -17 7 -11 -18 -3 -47 85
20 88 66 12 54 -45 82 96
40 11 19 52 -3 -7 127 -6
-55 -67 -24 18 13 -11 44 59
-55 -18 16 57 39 14 6 10
-58 90 -10 -37 -15 45 -95 42
-53 17 8 -23 -114 -91 127 23
54 51 -76 -13 20 37 45 29
9 -127 14 43 58 32 5 -1
34 36 49 -23 65 -24 -12 -6
36 -20 20 -102 61 13 -21 -39
123 -16 42 34 49 126 -7 -28
92 2 37 95 -29 -97 57 -22
-61 -6 10 112 127 -9 13 19
16 -38 -40 -16 42 -127 121 -62
-127 86 14 4 -66 89 -20 3
-58 34 47 -79 -31 -8 70 3
-77 -72 42 6 10 2 127 2
-58 -49 15 -29 47 -17 -43 -66
6 -45 48 10 55 4 -9 15
56 -47 57 90 -111 32 -22 32
-84 15 3 42 116 -86 53 -126

model/conv2d_32/Conv2D i1 [24, 1, 1, 136]
00000000: 3381 2746 8cf1 cd12 faf6 f498 c7d0 5d3d
00000010: 1564 050a 471c fdda c4e6 d3b9 d7d2 0245
00000020: 1cdd 10e3 e42e e821 c80e c609 09a4 38e1
00000030: 41f2 55c5 e61d cc0a 161d d337 1151 eef4
00000040: f6e6 0b30 e351 300d cda4 40e2 5bf0 e6b7
00000050: c70c 1d5a cecd bcea 1137 c489 b470 042c
00000060: e522 1a28 ffcc 0ddd 0e0d bc3a b6ee d50b
00000070: f002 0d11 dffd d534 d6bc 100d 2114 3b09
00000080: 5b4e e214 da2a 2d24 05ef ebe2 53df 17c8
00000090: fbf8 30b8 fc25 0df1 e21f fe48 09ca f9fe
000000a0: 400d ee1a dc0d e327 c50d 0c11 dfe6 f514
000000b0: ccdd 4b19 7820 333e 13f5 e181 0f46 1bfd
000000c0: fab1 f6e3 0d2d 1f73 270d 18bd 74cb f617
000000d0: 3623 c60f d30e 2322 a366 e6f3 3707 51df
000000e0: 042a ccf7 1bc0 ead1 3118 b857 bcfa e003
000000f0: d2f6 ecdc 1505 f508 0750 f1fe a333 a0f8
51 -127 39 70 -116 -15 -51 18
-6 -10 -12 -104 -57 -48 93 61
21 100 5 10 71 28 -3 -38
-60 -26 -45 -71 -41 -46 2 69
28 -35 16 -29 -28 46 -24 33
-56 14 -58 9 9 -92 56 -31
65 -14 85 -59 -26 29 -52 10
22 29 -45 55 17 81 -18 -12
-10 -26 11 48 -29 81 48 13
-51 -92 64 -30 91 -16 -26 -73
-57 12 29 90 -50 -51 -68 -22
17 55 -60 -119 -76 112 4 44
-27 34 26 40 -1 -52 13 -35
14 13 -68 58 -74 -18 -43 11
-16 2 13 17 -33 -3 -43 52
-42 -68 16 13 33 20 59 9
91 78 -30 20 -38 42 45 36
5 -17 -21 -30 83 -33 23 -56
-5 -8 48 -72 -4 37 13 -15
-30 31 -2 72 9 -54 -7 -2
64 13 -18 26 -36 13 -29 39
-59 13 12 17 -33 -26 -11 20
-52 -35 75 25 120 32 51 62
19 -11 -31 -127 15 70 27 -3
-6 -79 -10 -29 13 45 31 115
39 13 24 -67 116 -53 -10 23
54 35 -58 15 -45 14 35 34
-93 102 -26 -13 55 7 81 -33
4 42 -52 -9 27 -64 -22 -47
49 24 -72 87 -68 -6 -32 3
-46 -10 -20 -36 21 5 -11 8
7 80 -15 -2 -93 51 -96 -8

model/conv2d_33/Conv2D i1 [136, 1, 1, 24]
00000000: fbd3 0369 eb14 e77f e932 fe26 2911 01ec
00000010: 1254 0a2e e9f9 f597 1e59 1e32 0b12 cd3a
00000020: 377f 585b 3831 200e 250a f4c9 55f0 18d9
00000030: 41d9 eaf9 d93d d79c de25 f44e 7ff5 568d
00000040: f7d7 3ddc e52f 8bf8 1d24 2d18 0459 a331
00000050: c714 0ec9 422f cae3 8fdc 1081 56ce 0fd5
00000060: 19b7 cdf7 113e 2f0a 2c01 f1e7 1d05 c92b
00000070: eb01 35d7 35bb 737f 5d2a 9a08 ca1a 5913
00000080: fcb1 3104 e10a 8938 fecb 83ea 465d 81cf
00000090: 523b 0ce0 d152 e916 fdb3 db12 e6d0 cdf8
000000a0: 81e2 fb45 3c3a 204b 5ed9 f110 ef1a 2911
000000b0: 18fd 06e6 0b3f f524 5f1c 31fe 122a 7f1f
000000c0: 5c57 e6cd d8bf 277f fe26 2065 2f1b f1b3
000000d0: fd27 2667 073c bfe4 1b51 5727 02af 0b27
000000e0: 181e 0cb5 db0c 4b4a db00 2281 d048 a3d1
000000f0: e110 e681 13c0 1f17 cfeb ca1e c6f1 5627
-5 -45 3 105 -21 20 -25 127
-23 50 -2 38 41 17 1 -20
18 84 10 46 -23 -7 -11 -105
30 89 30 50 11 18 -51 58
55 127 88 91 56 49 32 14
37 10 -12 -55 85 -16 24 -39
65 -39 -22 -7 -39 61 -41 -100
-34 37 -12 78 127 -11 86 -115
-9 -41 61 -36 -27 47 -117 -8
29 36 45 24 4 89 -93 49
-57 20 14 -55 66 47 -54 -29
-113 -36 16 -127 86 -50 15 -43
25 -73 -51 -9 17 62 47 10
44 1 -15 -25 29 5 -55 43
-21 1 53 -41 53 -69 115 127
93 42 -102 8 -54 26 89 19
-4 -79 49 4 -31 10 -119 56
-2 -53 -125 -22 70 93 -127 -49
82 59 12 -32 -47 82 -23 22
-3 -77 -37 18 -26 -48 -51 -8
-127 -30 -5 69 60 58 32 75
94 -39 -15 16 -17 26 41 17
24 -3 6 -26 11 63 -11 36
95 28 49 -2 18 42 127 31
92 87 -26 -51 -40 -65 39 127
-2 38 32 101 47 27 -15 -77
-3 39 38 103 7 60 -65 -28
27 81 87 39 2 -81 11 39
24 30 12 -75 -37 12 75 74
-37 0 34 -127 -48 72 -93 -47
-31 16 -26 -127 19 -64 31 23
-49 -21 -54 30 -58 -15 86 39
